…
s/vgg16/vgg16_weights_tf_dim_ordering_tf_kernels_notop.h5\n","58892288/58889256 [==============================] - 1s 0us/step\n","58900480/58889256 [==============================] - 1s 0us/step\n","Model: \"vgg16\"\n","_________________________________________________________________\n"," Layer (type)                Output Shape              Param #   \n","=================================================================\n"," input_1 (InputLayer)        [(None, 128, 128, 3)]     0         \n","                                                                 \n"," block1_conv1 (Conv2D)       (None, 128, 128, 64)      1792      \n","                                                                 \n"," block1_conv2 (Conv2D)       (None, 128, 128, 64)      36928     \n","                                                                 \n"," block1_pool (MaxPooling2D)  (None, 64, 64, 64)        0         \n","                                                                 \n"," block2_conv1 (Conv2D)       (None, 64, 64, 128)       73856     \n","                                                                 \n"," block2_conv2 (Conv2D)       (None, 64, 64, 128)       147584    \n","                                                                 \n"," block2_pool (MaxPooling2D)  (None, 32, 32, 128)       0         \n","                                                                 \n"," block3_conv1 (Conv2D)       (None, 32, 32, 256)       295168    \n","                                                                 \n"," block3_conv2 (Conv2D)       (None, 32, 32, 256)       590080    \n","                                                                 \n"," block3_conv3 (Conv2D)       (None, 32, 32, 256)       590080    \n","                                                                 \n"," block3_pool (MaxPooling2D)  (None, 16, 16, 256)       0         \n","                                                                 \n"," block4_conv1 (Conv2D)       (None, 16, 16, 512)       1180160   \n","                                                                 \n"," block4_conv2 (Conv2D)       (None, 16, 16, 512)       2359808   \n","                                                                 \n"," block4_conv3 (Conv2D)       (None, 16, 16, 512)       2359808   \n","                                                                 \n"," block4_pool (MaxPooling2D)  (None, 8, 8, 512)         0         \n","                                                                 \n"," block5_conv1 (Conv2D)       (None, 8, 8, 512)         2359808   \n","                                                                 \n"," block5_conv2 (Conv2D)       (None, 8, 8, 512)         2359808   \n","                                                                 \n"," block5_conv3 (Conv2D)       (None, 8, 8, 512)         2359808   \n","                                                                 \n"," block5_pool (MaxPooling2D)  (None, 4, 4, 512)         0         \n","                                                                 \n","=================================================================\n","Total params: 14,714,688\n","Trainable params: 14,714,688\n","Non-trainable params: 0\n","_________________________________________________________________\n"]}]},{"cell_type":"code","metadata":{"colab":{"base_uri":"https://localhost:8080/"},"id"
…
rs.Dense(1024, activation='relu'))\n","model.add(layers.Dropout(0.5))\n","model.add(layers.Dense(nb_classes, activation='softmax', name ='output'))\n"," \n","# Show a summary of the model. Check the number of trainable parameters\n","model.summary()"],"execution_count":null,"outputs":[{"output_type":"stream","name":"stdout","text":["Model: \"sequential\"\n","_________________________________________________________________\n"," Layer (type)                Output Shape              Param #   \n","=================================================================\n"," vgg16 (Functional)          (None, 4, 4, 512)         14714688  \n","                                                                 \n"," flatten (Flatten)           (None, 8192)              0         \n","                                                                 \n"," dense (Dense)               (None, 1024)              8389632   \n","                                                                 \n"," dropout (Dropout)           (None, 1024)              0         \n","                                                                 \n"," output (Dense)              (None, 5)                 5125      \n","                                                                 \n","=================================================================\n","Total params: 23,109,445\n","Trainable params: 15,474,181\n","Non-trainable params: 7,635,264\n","_________________________________________________________________\n"]}]},{"cell_type":"code","metadata":{"id":"2dkGXx6Z4YDV"},"source":["model.compile(
…
psed":1090,"user":{"displayName":"health wiz","photoUrl":"https://lh3.googleusercontent.com/a/default-user=s64","userId":"06441068890922640918"}},"outputId":"9cf3b2c3-39f0-496e-cfe1-5692d5500abc"},"source":["model = createModel()\n","model.summary()"],"execution_count":null,"outputs":[{"output_type":"stream","name":"stdout","text":["Model: \"sequential\"\n","_________________________________________________________________\n","Layer (type)                 Output Shape              Param #   \n","=================================================================\n","conv2d (Conv2D)              (None, 128, 128, 32)      896       \n","_________________________________________________________________\n","conv2d_1 (Conv2D)            (None, 126, 126, 32)      9248      \n","_________________________________________________________________\n","max_pooling2d (MaxPooling2D) (None, 63, 63, 32)        0         \n","_________________________________________________________________\n","dropout (Dropout)            (None, 63, 63, 32)        0         \n","_________________________________________________________________\n","conv2d_2 (Conv2D)            (None, 63, 63, 64)        18496     \n","_________________________________________________________________\n","conv2d_3 (Conv2D)            (None, 61, 61, 64)        36928     \n","_________________________________________________________________\n","max_pooling2d_1 (MaxPooling2 (None, 30, 30, 64)        0         \n","_________________________________________________________________\n","dropout_1 (Dropout)          (None, 30, 30, 64)        0         \n","_________________________________________________________________\n","flatten (Flatten)            (None, 57600)             0         \n","_________________________________________________________________\n","dense (Dense)                (None, 512)               29491712  \n","_________________________________________________________________\n","dropout_2 (Dropout)          (None, 512)               0         \n","_________________________________________________________________\n","dense_1 (Dense)              (None, 5)                 2565      \n","=================================================================\n","Total params: 29,559,845\n","Trainable params: 29,559,845\n","Non-trainable params: 0\n","_________________________________________________________________\n"]}]},{"cell_type":"code","metadata":{"id":"NL1h-4Ljnxg6","colab":{"base_uri":"https://localhost:8080/"},"executionInfo":{"status":"ok","timestamp":1636456806527,
…
